model.pth (torch, 122031 bytes, 14 tensors)

layer1.0.weight f4 [16, 1, 5, 5]
00000000: 5ff6 bdbe c292 e73c e30c 75bd ec02 ba3e
00000010: bd4b f43c 5f0e a9be 4ff0 efbd 6a54 733e
00000020: 6ce8 1b3e a33c 07be d089 953b 30cc 72be
00000030: 3e59 613e f91c 113e d5fc ccbd 042e 29bd
00000040: 48f3 19be bdb7 dfbd df98 e6bd a1b4 9d3d
00000050: 7519 593d 37c9 b1bd 73ee 0a3e 9eb7 193c
00000060: c7fd 19bd 3a93 033d 3c3b 43bd 76c9 be3c
00000070: e007 dd3c 2f1f 5f3d cfbb 6d3e 414c 2dbc
00000080: 2a88 38be f2a7 14be 27cc 703d e817 67bd
00000090: d914 ed3d f212 103e 1af1 0a3d f062 633e
000000a0: 2dcd b23c 1851 833e 7e50 723e 86b0 03bd
000000b0: d763 c03d 557c 97be e596 c1be f229 6cbe
000000c0: e77b 4cbe d15f d4bd 6abc 94be 920d b2be
000000d0: 1189 89be b3c0 9cbe 9cd8 6fbe 53a6 b6be
000000e0: 90f8 04be 00be 3ebe fdf1 c6bd c958 45be
000000f0: 1ef8 19bd 74a2 0c3e b593 af3c a1d8 afbc
00000100: 1ac6 763e d1c3 fc3d cb3c 19be 5f0d 04bd
00000110: 5f56 3f3e d665 cd3c f77b 68bd 2de8 12bc
00000120: 2286 103e a371 933d 0df4 4f3e 59e7 473d
00000130: 80f0 423e fcc2 4a3e 0a9e 6abc 1ba2 a8ba
00000140: ff78 f93c d3ae 90bc 1ce1 d3be ce80 58be
00000150: 900a 1bbe a0e6 1dbe 53a3 a2be c5a3 57bd
00000160: 716e 763d 5d09 763e a757 bbbd 397b 263e
00000170: 1835 3f3e 3833 923e 0f48 903d d5d6 143e
00000180: 2175 b23d 023c 0ebd 03d7 83be 4db2 17be
00000190: 382f bdbd 65a6 2abd 8eeb ec3d 6b05 c83d
000001a0: 489e 8abd 1df6 d1bd 8931 153e ded0 833e
000001b0: e6a0 f6bd 06fb 61be fe13 823e 941f 76be
000001c0: 85fa 8f3d 5d05 8f3e 43b5 1ebe 43c7 a03e
000001d0: cea3 84be 42e7 9d3c 37d1 133e f727 24be
000001e0: ee86 1ebd e6bb bfbd 5f10 e43d 6b45 933d
000001f0: 6949 06be 71b2 bdbe b0d2 44be cd0c 0fbc
00000200: 4b12 393e a5fb 7a3e 38ad 11be 5524 83bd
00000210: e707 fdbe cfb3 85be 3500 b6bd 2313 86bc
00000220: 60c3 c23d 9a36 a63d 772d b4be 866e 1fbe
00000230: dfc6 4a3b a947 f83d c13b 78bd 5ecd be3d
00000240: 4c33 eabd eb33 003e b148 0b3e bc81 59bc
00000250: 6c88 db3d b4ba cf3a 1bac b13d 8550 95be
00000260: 8afa 83be 41f8 aebe 84c1 503e 8eca 3e3e
00000270: 030d ef3d 1244 83be d39f 5abe 001e 0bbe
00000280: 21b9 1a3e ec68 913d 2f01 ef3d 5b64 98be
00000290: ca89 0cbe 0fbc d1bc 0a1a 0c3e 114c 9bbc
000002a0: 85df b8bd 9526 5dbe e0c7 813e 358c 58bd
000002b0: 1f85 753d abc2 b0be 6a11 23be 2f2f ed3d
000002c0: 303e 9e3e 448d 683d 4a54 d83d ce4c 93be
000002d0: c4c4 97be 24c4 4cbd d04e 043e 355f 0c3c
000002e0: c720 93be 41a8 20be 0f4e 13be 9bb4 2e3e
000002f0: 18cd 043e eaea d1bd 6b62 c6be 83c3 a53c
00000300: 8721 213e 9ee8 d1bd 1d42 22be 55a0 dabd
00000310: 0737 d93d 31ba 383c 58ad 113d 6d90 d53c
00000320: 874a 883d 040f 963d 9175 72bd a8cd a5bc
00000330: df9e af3e 4a94 38be a747 c8bd 58c9 91be
00000340: dfb0 0ebe 63df c03d 181c b73d ea17 0fbe
00000350: 6368 79be 64ca ffbd 03e2 80bb 730c 1a3e
00000360: 2750 7e3e 49e6 3dbe bc07 a5be 34f9 c63d
00000370: f820 35be 2561 183e 53c4 2d3e 8d21 afbd
00000380: 5f5a 32be c8bc 883d 190d b3bd ddd4 563d
00000390: c748 bf3d b718 3e3d 2869 f93c d479 12be
000003a0: 25ae 15be 9aa8 06be 213b bebb a6d7 80bd
000003b0: ae1e 823e 9d07 18be 3391 93bd 87c9 503e
000003c0: 3fab 483e 872e 333e c829 b6be 1bd3 69be
000003d0: 6b3d 803e 419d 7b3e 4de5 57be fa21 8abe
000003e0: b4f0 173e 4c29 4d3d dd6a 683d 7d6f 4fbd
000003f0: 9daa eebd be1d d9bd 3f97 413e 30c8 823e
-0.3710203 0.028268222 -0.059826743 0.36330354 0.029821271 -0.33018777 -0.11715757 0.2376267
0.1522538 -0.13206725 0.0045635477 -0.23710704 0.220067 0.14171208 -0.100091614 -0.04130365
-0.1503421 -0.10923717 -0.112596266 0.07700468 0.053002793 -0.08680957 0.13567524 0.009382157
-0.037595537 0.032122828 -0.047663912 0.023289423 0.026981294 0.0544731 0.23216175 -0.010577262
-0.18020692 -0.14517191 0.058788445 -0.056419283 0.11576242 0.14069727 0.03392134 0.2220571
0.021826351 0.25647807 0.23663518 -0.032150768 0.09394043 -0.29587045 -0.37810436 -0.23062876
-0.1996914 -0.10369838 -0.2905 -0.34775978 -0.26862386 -0.30615768 -0.23422474 -0.3567377
-0.12985444 -0.18627167 -0.09714124 -0.1927215 -0.03759014 0.13733846 0.021432737 -0.021465601
0.24099007 0.123420365 -0.14964597 -0.032239314 0.18685292 0.025072973 -0.056758847 -0.008966488
0.14113668 0.07199409 0.20307942 0.048804615 0.19037056 0.19800943 -0.014319906 -0.0012865694
0.030453203 -0.017661488 -0.41382682 -0.21142885 -0.15140748 -0.15420008 -0.31765231 -0.052646417
0.06016392 0.2402701 -0.09147578 0.16257943 0.18672597 0.28554702 0.07044994 0.14535077
0.08713747 -0.034725197 -0.25749978 -0.1481411 -0.09237522 -0.041662592 0.11568366 0.097666584
-0.06768471 -0.102520205 0.14569677 0.2574529 -0.12042408 -0.22068414 0.25405878 -0.24035484
0.07030205 0.2793378 -0.15498833 0.31402025 -0.25906223 0.019275311 0.14435278 -0.1603087
-0.038702898 -0.09362011 0.11135935 0.07190975 -0.13113941 -0.37050202 -0.19220996 -0.008731079
0.18073384 0.24510057 -0.14226234 -0.06403414 -0.49420092 -0.26113746 -0.08886758 -0.016366547
0.09509921 0.08115883 -0.35190937 -0.15569505 0.003094129 0.12123043 -0.06060386 0.093165144
-0.11435565 0.12519805 0.13601948 -0.01327556 0.1071938 0.0015848489 0.08675405 -0.29162994
-0.25777084 -0.34173778 0.2038632 0.18631956 0.11672404 -0.2563787 -0.2135003 -0.13585663
0.15109684 0.071000904 0.11670148 -0.29764065 -0.13724437 -0.025602369 0.13681808 -0.01895717
-0.09027008 -0.21596749 0.25347805 -0.052868087 0.059941407 -0.3452352 -0.15924612 0.11581265
0.3090682 0.056775346 0.10562952 -0.28769535 -0.29642308 -0.04999174 0.1292069 0.008567621
-0.28735945 -0.15689184 -0.14385246 0.17061083 0.12968862 -0.102498844 -0.38746962 0.020234829
0.15735446 -0.10249446 -0.15845533 -0.10675112 0.10606199 0.01127486 0.035565704 0.026069844
0.0665484 0.07327083 -0.05919415 -0.020239666 0.34300897 -0.18025318 -0.097792916 -0.28473926
-0.13934658 0.09417608 0.08940905 -0.13973966 -0.24356227 -0.12489775 -0.0039331927 0.15043812
0.24835263 -0.18544878 -0.32232463 0.097155005 -0.17688358 0.14880808 0.16969423 -0.08551321
-0.17417286 0.06676632 -0.087427326 0.052449096 0.09340053 0.04641029 0.03044565 -0.14304286
-0.14617212 -0.13150254 -0.0058053886 -0.06291132 0.25414032 -0.14846654 -0.07205429 0.20389377
0.19596575 0.17498218 -0.35578752 -0.22834437 0.25046858 0.24571706 -0.21083565 -0.26979047
0.14837915 0.050088212 0.056742538 -0.050643433 -0.11653636 -0.10601376 0.18905352 0.25543356

layer1.0.bias f4 [16]
00000000: 0847 19be 623a 083e 98d8 dbbd 13d5 9ebd
00000010: 8289 b03d a494 a9bd 2a3c 183e 4402 bb3d
00000020: fbc1 8ebe 576f 073e eaa1 22be 83b4 29be
00000030: 866e 63bd e700 753e 398e 283d 19ab 0fbe
-0.14968503 0.13303521 -0.10734671 -0.077554844 0.086199775 -0.08280304 0.14866701 0.091312915
-0.2788237 0.13226067 -0.15882078 -0.16572766 -0.055525325 0.23926125 0.04115126 -0.14030112

layer1.1.weight f4 [16]
00000000: 317c 593f 9c7d 833f 7803 8b3f 4325 883f
00000010: ea44 023f b194 9b3f f838 753f 2e1c 7f3f
00000020: 9c76 973f 7ebc 6b3f 77bf 453f 0e55 8f3f
00000030: f955 993f b948 543f fc9a 753f 6726 393f
0.84955126 1.0272708 1.0860434 1.0636371 0.50886405 1.2154752 0.9579005 0.99652374
1.1833072 0.9208449 0.7724528 1.1197832 1.1979362 0.82923466 0.9593961 0.7232422

layer1.1.bias f4 [16]
00000000: 859f dcbe 9dfe c4be 0d41 adbe ef87 a5be
00000010: f238 12bf 0499 c4be 4337 c4be 6fa3 b2be
00000020: ae33 86be 44df acbe 9e91 01bf f589 9cbe
00000030: cf5f 9bbe 28a9 36bf 32aa 34be 2d58 febe
-0.43090454 -0.38475505 -0.33838692 -0.32330272 -0.5711814 -0.38397992 -0.3832341 -0.34890315
-0.26211303 -0.33764088 -0.5061282 -0.30574003 -0.30346534 -0.7135186 -0.1764305 -0.49676648

layer1.1.running_mean f4 [16]
00000000: 2f84 ad3d 3e31 443e 4b8d 603f 3101 ad3d
00000010: 0bb7 61bd 1e40 333f 6f6c 8f3f 468f f33e
00000020: 859c 903e dab7 683e 806f e9be 62c0 453f
00000030: 7413 493f d460 6f3e ac1b e13e 3d87 77bc
0.08472478 0.1915941 0.87715596 0.08447493 -0.055106204 0.7001971 1.1204966 0.47570246
0.28244415 0.22726384 -0.4559288 0.7724668 0.7854531 0.23376781 0.43966424 -0.015107927

layer1.1.running_var f4 [16]
00000000: d937 a33e f1b0 603e 8f84 9e3f faa4 223e
00000010: aaf8 043e adb3 063f f223 643f ead3 823e
00000020: 3e94 963e c719 3a3e 8a89 ee3e 428a 373f
00000030: 157d 1e3f 4451 2c3e 5001 363e 96d4 0c3e
0.31878546 0.21942498 1.2384204 0.15883246 0.12985483 0.52617913 0.8911735 0.25552303
0.29409975 0.18173896 0.4658931 0.7169534 0.6190961 0.16827875 0.17773938 0.1375297

layer2.0.weight f4 [32, 16, 5, 5]
00000000: 8749 0fbb d0da 22be 4069 053d 06d7 6a3b
00000010: e640 09be efc7 7e3e 184b 1cbe cbd3 c73c
00000020: 29e5 3d3e fb4d ce3d 0d6a 803d 46a6 9d3c
00000030: b545 dc3d 09f0 1f3e 4931 8b3c 89d4 afbd
00000040: bc59 343e f7a7 093d ecc6 f2bc 09b8 f5bd
00000050: 1df0 5f3d cf3d 0bbd d9fc abbd 02f5 033e
00000060: dca4 4c3d 2cd7 d4bd 13ce 24bc 9640 b13d
00000070: f640 40be c882 1dbe 2cdd dcbd ecce cebd
00000080: 75a2 58bd 3b8a b2bd 55d0 043c fda2 10be
00000090: 0356 7dbe 0c91 4bbd 8591 ae3d 6661 a33a
000000a0: 5233 63be e4bd 3cbe 9c0b c53d 1a91 333e
000000b0: 30cf 45bd 721f 0fbd bd9c 153e 0ac8 643d
000000c0: f26c 3c3c 9d40 b2bc a8b6 e6bd 5604 0abe
000000d0: dc62 99bd cce7 81be 11f8 c2bd 7be1 51be
000000e0: 6a39 3fbe 764d 8cbb 2640 05be 4234 be3b
000000f0: c93a 40bd d5f5 943d ad16 023d a4f0 05bd
00000100: 72c5 42bd b139 9d3d 7ed6 80bd aa3e ddbd
00000110: 8853 97bb 1bc9 073d d494 7fbd 48a3 b6be
00000120: 727e 32be 4c47 193e dd59 703c ef20 a53d
00000130: 99ad ee3d 7c3f babc b9c1 71bc de46 a83d
00000140: 229a acbd c70c 3cbc 40f5 093e 4fcb 6f3d
00000150: cff4 a43d 5871 9f3c 7f21 8f3e 79be 903e
00000160: 9d30 973d 2fa4 ba3c 970b 31be 14ab e33d
00000170: 35d9 0a3e 9675 763e 9bcc c7bc b320 4ebd
00000180: ffe7 15be 2d3a bf3d 2a34 0b3e 5814 d7bc
00000190: f24f 89bd 61d9 8abd b33b 0d3e 525d acbd
000001a0: 9b33 2abe 9919 19bd 5852 85bb d681 6a3c
000001b0: a04a 2ebe 614e 33bd 822e 17be 5c7b f0bb
000001c0: ec8f cdbc 5d19 67bd ab9a 303d 02cd 71bd
000001d0: 350b d8bd 2a4e ec3d 746c 23be ec75 b63d
000001e0: 9116 71be e791 ab3d 7346 073e a8bc 50be
000001f0: ca5f 943d 213b 263d a3ee a63b 9168 7a3d
00000200: 5f9e 053e e5bd aebd 139f 23bb e73f 1fbe
00000210: 2c8f 23be e21a af3c fe55 a0bc 446c 32bb
00000220: 10b0 4fbe ca53 70bd 6742 45bd 9299 2abe
00000230: 4515 29be 9de8 94bd 0ab7 a5bc 0aab 00be
00000240: df91 30be bb66 393e 9346 54bd d1d1 6dbe
00000250: b60c 0f3e 68e0 17be 3ca3 893d e18e ccbc
00000260: 479c 943d e741 903c b71b 6a3d 0e8d 723d
00000270: 7eae 66bd 44ff 31be 2dc5 c03d 0095 c83d
00000280: f9e3 fc3d 11bb 11be 79b7 603c 207e af3b
00000290: 3dd9 40bd 8cad 2ebe 926e dabd 14e2 02bd
000002a0: e438 a1bd b1ff 5fbe 2a44 d53d 298a c23d
000002b0: f56e 853d 96cb 093d 3461 bebd 9957 22bd
000002c0: 685b 8dbd aed2 49bd 60f5 573e 1889 c93d
000002d0: eb01 9fbd c457 f13d c78c bc3d 8dd7 3b3e
000002e0: 3b5d e8bd 1150 69be f4a9 623e 859d 3d3e
000002f0: 1bc6 06be 1aa4 c63d b164 4dbe 5dca 193d
00000300: 9785 c9bd c068 0dbe 15b0 f9bb 4806 8f3d
00000310: f5d2 3dbe 171a 80be 7475 55be 93fd fb3b
00000320: aef1 b73d edab fbbc 90cc bb3d 948e 2e3e
00000330: 99d7 82bd b0c0 d8bc 9a34 7f3d 7a9e 043d
00000340: cbdc 0bbe 6dac 3c3e 436c 633e 19fd 6dbd
00000350: d8a4 b5bd b3c1 3fbc 6a8d 08bd 3097 8cbd
00000360: c44a 013d 9302 99bb ba96 c6bc 9344 56be
00000370: 79c0 3d3d f7e9 c1bc cdd2 a13e 62ae c93d
00000380: 59d2 3dbe 01cc a63d bab9 9cbc b137 77bc
00000390: 0163 6f3d 4554 d63d 063c fc3d 9a48 aa3d
000003a0: 735c 253e be04 0f3e a5da 773e 7114 083e
000003b0: b6a5 843e a6a9 e43c 35ae d73d cffe 02bc
000003c0: 69ab 643c 0478 8bbd 22a3 933d 4f8a ccbc
000003d0: cbb7 97bd 4205 43be 00db 52bb 2d19 78be
000003e0: 68ba 90bb 1ebb 8bbc d283 ea3c 0757 a13d
000003f0: b2b0 9fbe db8a b0bd 9743 153e 8de1 1c3c
-0.0021863894 -0.15903783 0.032571077 0.003583373 -0.13403663 0.24880956 -0.15263021 0.024392983
0.18544449 0.10073467 0.062702276 0.019244324 0.10755483 0.1561891 0.016991274 -0.0858546
0.17612356 0.03360745 -0.029635869 -0.119979925 0.05467235 -0.033994492 -0.08397836 0.12886432
0.04996191 -0.10392603 -0.010058898 0.08654897 -0.1877478 -0.1538192 -0.10784373 -0.10098061
-0.052889306 -0.087177716 0.008106311 -0.14124675 -0.24739842 -0.049698874 0.085238494 0.001246494
-0.22187546 -0.18431813 0.09621355 0.1753582 -0.048293293 -0.034942098 0.14610572 0.055854835
0.011500584 -0.021759326 -0.11265308 -0.13478217 -0.07489559 -0.2537216 -0.09519971 -0.2049617
-0.18674245 -0.004281695 -0.13012752 0.0058045695 -0.046931062 0.07273451 0.031759907 -0.032700196
-0.04755158 0.076770194 -0.06290911 -0.10802968 -0.004618112 0.033150773 -0.062397793 -0.3567145
-0.17431048 0.14968604 0.014669863 0.08062922 0.11654205 -0.02273535 -0.01475566 0.08216642
-0.08427836 -0.011477656 0.13472462 0.0585435 0.08054506 0.019463226 0.27955243 0.2827032
0.07382319 0.022783367 -0.17289577 0.11116615 0.1355942 0.24068293 -0.024389556 -0.050324153
-0.1463928 0.09337268 0.13594118 -0.026254818 -0.067047015 -0.06779743 0.13792305 -0.08416237
-0.16621248 -0.037377927 -0.004068654 0.014313182 -0.17020655 -0.04377592 -0.14763835 -0.0073389243
-0.025093041 -0.056420673 0.043116253 -0.0590334 -0.105490126 0.11538346 -0.1595934 0.089092106
-0.23543765 0.08377438 0.13210468 -0.20384467 0.07244833 0.040583733 0.0050943657 0.06113488
0.13048695 -0.08532313 -0.0024966642 -0.1555172 -0.15972584 0.021375123 -0.019572254 -0.0027225176
-0.20282006 -0.058673657 -0.04815903 -0.16660145 -0.1651202 -0.0727093 -0.020228881 -0.12565246
-0.17243145 0.18105595 -0.051825117 -0.2322457 0.13969693 -0.14831698 0.067205876 -0.024970474
0.0725637 0.01760955 0.057155337 0.05921655 -0.056318752 -0.17382532 0.09412608 0.097940445
0.1234817 -0.14231516 0.013715618 0.0053556114 -0.047082175 -0.1705839 -0.10665621 -0.031953886
-0.07872179 -0.21874882 0.10413392 0.09499008 0.06515304 0.03364142 -0.09295884 -0.03963432
-0.069022 -0.049273185 0.21089697 0.09840602 -0.07764038 0.11784318 0.09206539 0.18343945
-0.11345907 -0.22784449 0.22135144 0.1851712 -0.13161509 0.09699269 -0.20057942 0.037546504
-0.09839933 -0.1380949 -0.0076198676 0.0698362 -0.18537505 -0.25019905 -0.20845586 0.0076901405
0.089816436 -0.030721629 0.091698766 0.17046577 -0.06388778 -0.026459068 0.062306024 0.032377698
-0.13658445 0.1842515 0.22209267 -0.0581027 -0.08869332 -0.011703896 -0.033337988 -0.06864774
0.031565443 -0.0046694963 -0.024241794 -0.20924596 0.046326134 -0.023671133 0.3160614 0.09847714
-0.18537273 0.081443794 -0.01913153 -0.015088961 0.058444027 0.10465292 0.12316136 0.08314629
0.16148548 0.13966653 0.242045 0.13289048 0.25907677 0.027912926 0.10531274 -0.007995321
0.013956883 -0.068100005 0.072088495 -0.024968294 -0.074081026 -0.19044974 -0.0032173991 -0.24228354
-0.0044167526 -0.017056998 0.02862731 0.07877927 -0.31189495 -0.086202346 0.14576565 0.00957526

layer2.0.bias f4 [32]
00000000: 9584 033d 686c 09bc e86a 5bbd 02b1 04bd
00000010: 1177 5d37 beb0 b83c 6969 1c3c 9e6e 80bc
00000020: 4c8c bcbc 0141 2a3d 71b0 9e39 09be 13bd
00000030: 5d2f d8bc e6fc d13c e415 dfbc 7d29 e4bc
00000040: 94ce f73c 3e28 31bd e226 debb c96e 303d
00000050: 7895 2c3c e6bd fbbc 2874 6cbb 8e49 fabc
00000060: 8f2d 27bd 1606 43bd d617 1f3d e5b1 4ebd
00000070: a5bb a6bb d3b4 1e3c 0070 c8bc d0e0 39bd
0.032108862 -0.0083876625 -0.05356875 -0.03239537 1.3200349e-05 0.022545215 0.009546616 -0.015677746
-0.023016118 0.0415659 0.00030267567 -0.036069904 -0.026389772 0.025633287 -0.027232118 -0.027851814
0.030249871 -0.04325127 -0.0067795375 0.043074403 0.010533683 -0.0307302 -0.0036079977 -0.030552652
-0.040814932 -0.047613226 0.03884109 -0.050462622 -0.005088287 0.009686667 -0.024467468 -0.045380414

layer2.1.weight f4 [32]
00000000: c7ea 6d3f 31c3 aa3f 4517 993f 00f8 903f
00000010: bbed 873f d62e 8e3f c86b 9e3f dc48 8c3f
00000020: 0c4f 8f3f 9209 9a3f d3d8 8c3f 3431 833f
00000030: 142b 8f3f a0c7 893f e2f5 753f 164f 8f3f
00000040: b58b 913f e7a7 7e3f 009a 8a3f 1ee0 803f
00000050: df55 943f 54e1 833f d693 8d3f 2f05 8a3f
00000060: cae6 863f 960e 6b3f 7826 813f 0e94 833f
00000070: 1a29 9d3f 1d41 8b3f faf4 973f 7e13 8e3f
0.92936367 1.3340818 1.1960226 1.1325684 1.0619425 1.1108043 1.2376642 1.0959735
1.1195998 1.2034171 1.100367 1.0249391 1.1185021 1.0764046 0.9607831 1.119601
1.137076 0.9947495 1.0828247 1.0068395 1.1588706 1.030314 1.1060741 1.0782832
1.0539181 0.9181913 1.0089865 1.0279558 1.2278168 1.0879246 1.1871636 1.1099699

layer2.1.bias f4 [32]
00000000: 7d8a 08bf 89c4 d9be a2bf 0fbf 9547 eebe
00000010: cca9 45bf 66c5 09bf c9df 05bf 7e11 14bf
00000020: 427f 21bf 3de7 10bf 898b 1dbf c1eb e8be
00000030: 6b6d 0dbf 30a8 32bf 9825 24bf a6c2 29bf
00000040: 4493 3ebf 632d 1abf c977 03bf 26f1 debe
00000050: dc0e 35bf 4667 2bbf 6ee4 31bf 948c a7be
00000060: 631c 3bbf d149 19bf 12b3 eabe 0b12 26bf
00000070: 179c 14bf 914e 0bbf 3baf 40bf e824 35bf
-0.53336316 -0.42532757 -0.56151783 -0.46538988 -0.77212214 -0.5381683 -0.52294594 -0.5783919
-0.63084805 -0.5660284 -0.6154104 -0.45492366 -0.55245084 -0.69787884 -0.64119864 -0.66312635
-0.7444346 -0.60225505 -0.5135465 -0.43543357 -0.707258 -0.6695446 -0.6948918 -0.3272444
-0.7309019 -0.5987826 -0.45839745 -0.6487128 -0.58050674 -0.5441676 -0.7526738 -0.7075944

layer2.1.running_mean f4 [32]
00000000: 8534 16be 5f03 353f 63ef 9d3f 7e9e 6cbf
00000010: 392b 5bbf d3f3 95bf dc55 673f 9ae8 f83f
00000020: 5c05 b2bf 2cd6 2fbf c11c 77bf 40d4 4b3f
00000030: fc13 fdbe 50d0 8cbf 7115 81be 211f 28bf
00000040: 2daa cebe 9fb9 f1bf 767f dd3e 386d 68be
00000050: bd0c 40bf beb7 cbbe ecaa 1ebf 2177 cd3f
00000060: cbc2 2dbf e48d b0bf 4d28 e9bc 1090 fcbe
00000070: ba41 f4be b351 93bf 15cc 09bf 814d 02c0
-0.14668472 0.7070827 1.233868 -0.9242934 -0.8561283 -1.1715034 0.90365386 1.9445984
-1.3907886 -0.68686175 -0.9652825 0.7962074 -0.4942931 -1.1001072 -0.2521167 -0.656725
-0.4036421 -1.8884772 0.43261307 -0.22697914 -0.7501944 -0.39788622 -0.61979556 1.605198
-0.67875355 -1.3793302 -0.0284616 -0.4932866 -0.47706395 -1.1509308 -0.5382703 -2.0359805

layer2.1.running_var f4 [32]
00000000: 85bf 0d40 d1df 9640 c0c2 5140 7434 0d40
00000010: d673 1840 0dd6 5f40 39c3 8240 ca8c 5140
00000020: 7953 3440 2d36 5440 7740 2d40 e2c2 2440
00000030: 625e 0740 afb6 3f40 16ba 2840 69d4 1540
00000040: d0d0 2240 386c 5c40 b653 2f40 57be 9140
00000050: 2c61 2640 e5d3 7240 c4a3 2740 e9fe 3240
00000060: 3631 2d40 d4a7 5940 7837 8c40 a318 5e40
00000070: bf0e 5e40 325c 6b40 5e3c 5340 e9a2 3b40
2.2148144 4.7148213 3.2775116 2.2063265 2.38207 3.4974396 4.086331 3.274218
2.8175948 3.3158066 2.7070596 2.5743947 2.1151357 2.9955251 2.6363578 2.3410895
2.543995 3.4441051 2.7394843 4.554485 2.599681 3.794183 2.6193705 2.7968085
2.7061286 3.4008684 4.381771 3.4702537 3.46965 3.6775022 3.3005595 2.9318182

fc.weight f4 [10, 1568]
00000000: 934c 163d 2a1f 18be f0cf 853b feca 4c3c
00000010: dd4e 903c 330e 513d 75d9 fd3d ef7c 893c
00000020: 163b 503e 735f dcbd d75b 7cbd 3f93 c4bd
00000030: 8e46 86bc 921c e83b 0616 343e fe41 d83d
00000040: 21b1 e4bd 398f c23d 4cad 64be 1b1f 333e
00000050: 0d61 d03d f349 a43d 21c8 c4bc 500b c73d
00000060: 8320 97bd 504f 323e 69be fe3d de9d ad3d
00000070: 7f29 013d 1cd3 b73d 4d71 333c c332 cb3d
00000080: aee6 853d 5796 ff3d 6f52 7dbd 39cd d53d
00000090: 6839 833c 4b5b d6bc 5c4d 3dbc a56f c73c
000000a0: 19cd f1bd 5645 81be b141 ebbc cf39 213e
000000b0: 847d e0bd 338b c8be be06 4bbe 14fb abbe
000000c0: f76a 5fbd bf79 18be 1c8f b5bd c788 12bc
000000d0: 0efb 9f3c 46e2 763d 839c 3a3e ded4 59bd
000000e0: e0cf 42bd f804 073e 6552 0f3e 3a26 fb3c
000000f0: 2ca1 c83d a1be ef3d b71a 2c3d 8ba8 a8bd
00000100: 8462 73be ef07 d6bc f99c c339 df02 193b
00000110: 6c6e 0bbd 47e6 9ebd fa39 22be 298e 58be
00000120: d6dd 03bf b705 81be 61bb 20bf 1c12 c6be
00000130: 5781 d5bc 8649 30be 64d3 70be 8193 49be
00000140: 335f 583d 96fc acbd 646c 0cbf 577d dfbe
00000150: 3910 ccba 5c80 8abe 4daf 913d 1182 8f3e
00000160: d178 833e 753a 673e 83a2 ffbd 11a8 7dbe
00000170: 72fb 83bd 12b5 d83b 6f00 103e d394 d33d
00000180: 4c00 513d b2c5 17be 16c0 fd3c 72d4 813b
00000190: a8a5 8b3d 3610 91bc bdd2 48bd 5ee4 8bbd
000001a0: 6faf 803c fc7e 8a3c 739e 933d 730d 133c
000001b0: 3b1f 76bc 3909 0ebe 35d6 d4bd 7626 953d
000001c0: e7a8 1e3d fc51 023d c80d 76bc dce9 373e
000001d0: 7755 8b3d 828e 7fbd 4297 45bd d1bd ba3d
000001e0: eaed 2f3b 9ab3 e83d ef18 8c3e ca98 60be
000001f0: a0c1 b33d 3555 5c3d cc23 14bd 993e 87bd
00000200: 5649 0f3e c69c 333e c6f2 f5bd 4a0c c33d
00000210: 9836 b3bc 8bfb 1ebd fb5a 73ba 0e40 ad3d
00000220: 1881 88bc a82c c2bd c995 33be 7604 003c
00000230: 0727 013d d7bb 923d f91c dcbd 2505 0bbf
00000240: 3907 cabe a0e9 52be 07fb cebd af55 f5bc
00000250: cd53 36be ff09 7cbd c432 733d 7b5f ba3d
00000260: 7d35 733d a779 0bbd dd38 06be 57ac f4ba
00000270: e179 a5bd 5fe7 40bd 383f 5fbd fad2 853d
00000280: ec4c 163d ce23 28bd 2e1d cc3c f44d 89bd
00000290: 57f4 29ba 24b9 073d 8528 f43b 0eea e23d
000002a0: aeca 823d e359 503e 410f ba3d c62e 1bbd
000002b0: f4b0 adbe 7bdc 443e 659f 763d 2e49 d33d
000002c0: 3ae7 553d 67ae ac3d d93a 36be 797c a5bd
000002d0: 3c1c c5bd d4d2 873d cae5 4b3d 78c9 ce3c
000002e0: cdca 63bd 13bc 85bd 7aa9 02be f8a6 33bd
000002f0: 6b49 7cbd 84ab 923c bc32 acbd ba1c 5abd
00000300: 05a3 83bd 73c2 153b 315e 3f3d a53b 45be
00000310: 731c b03d e58b 01bd 0d6b 46bd 23bb 8c3d
00000320: 9479 ff3c d7e5 01be 8b63 883d 50c1 d6bd
00000330: ec24 1ebe b80f 173c 765b 9e3d 78bb 873d
00000340: 946e d93c 9d0c 853d 244f 833d 7769 ce3d
00000350: 016f a53d 7729 1e3e 14f6 13bd 0ae7 103e
00000360: 8e36 5e3e 1384 f53d 09dc 9abb f1bc 703d
00000370: eee2 39be e56c e73c 60e9 3b3c d7a1 89bd
00000380: 676f 0a3e d08f 2fbe c79b 91bd 226c 923d
00000390: a73d e1bd c096 973d 160a 0cbe aa6f abbd
000003a0: 55c4 6dbe e8ff 97bd 84c4 d43c 523a 32be
000003b0: 940a ddbd 9a12 e2bc e2af 34be dc1c a8bb
000003c0: b41d 823e f45b a23e 8b04 e6bc 68e1 53bd
000003d0: e5cb 023d fdf9 893d 9498 f03d ab50 d1bb
000003e0: 88e0 cbbd de45 ed3d 297b 4dbd 7626 9ebc
000003f0: a6be ab3b cfe6 c63d 355a 4a3d 90e6 b6bd
0.03669412 -0.14855638 0.004083626 0.012499569 0.01761573 0.051038932 0.12394992 0.016783206
0.2033504 -0.10760393 -0.061611023 -0.095983975 -0.016391065 0.007083484 0.17586526 0.10559462
-0.11166597 0.09499974 -0.22331733 0.17492335 0.10174761 0.08021917 -0.02402121 0.097189546
-0.07379248 0.17413068 0.124386616 0.084773764 0.031533714 0.08975813 0.010952306 0.099217914
0.06538139 0.12479847 -0.061846193 0.10439534 0.016018584 -0.026166579 -0.011554088 0.024345228
-0.118066974 -0.25248212 -0.028717848 0.15744708 -0.1096144 -0.391687 -0.1982679 -0.33589995
-0.05454537 -0.14890192 -0.088651866 -0.008943743 0.019528892 0.060274385 0.18223767 -0.05318152
-0.047561526 0.13185489 0.13996275 0.030657876 0.09796366 0.117062815 0.042017665 -0.08235272
-0.2376805 -0.02612683 0.00037310252 0.0023347659 -0.034040853 -0.07758766 -0.15842429 -0.2114798
-0.5151037 -0.25199673 -0.6278592 -0.3868569 -0.02606265 -0.17215547 -0.23518139 -0.19685175
0.052825164 -0.084466144 -0.5485289 -0.43650314 -0.00155688 -0.27051055 0.07113514 0.2802892
0.25678113 0.22580893 -0.124821685 -0.24771143 -0.06444444 0.006613382 0.14062665 0.1033112
0.051025674 -0.14821509 0.030975383 0.003962093 0.06818706 -0.017707925 -0.0490291 -0.06830667
0.015708653 0.016906254 0.07207956 0.0089753745 -0.015022094 -0.13870706 -0.10392419 0.072827265
0.038735297 0.031816468 -0.015017934 0.17960304 0.068034105 -0.062391765 -0.048239954 0.09118236
0.0026844689 0.11362381 0.27362773 -0.21933284 0.087771654 0.053792197 -0.03616695 -0.066037364
0.13992819 0.17540273 -0.12009196 0.09523828 -0.021876618 -0.03881411 -0.00092832715 0.08459483
-0.01666312 -0.09481174 -0.17537607 0.007813564 0.03153136 0.07164734 -0.107477136 -0.54304725
-0.39458635 -0.20596933 -0.101064734 -0.029948084 -0.17805405 -0.06153297 0.059374586 0.09100243
0.059377182 -0.034051564 -0.13107629 -0.0018667084 -0.08079887 -0.047095653 -0.05450365 0.06534381
0.036694452 -0.04104977 0.024916258 -0.067043215 -0.0006483248 0.03313555 0.0074511194 0.11079799
0.06386314 0.20346789 0.09084941 -0.037886404 -0.33924067 0.19224732 0.060210604 0.10316692
0.052222468 0.08431702 -0.17795886 -0.08080382 -0.09624526 0.06632009 0.04977969 0.025242552
-0.055613328 -0.06530013 -0.12759963 -0.043860406 -0.061593454 0.01790405 -0.08408114 -0.053250052
-0.06427578 0.0022851496 0.046720687 -0.19261034 0.08599176 -0.031627554 -0.048441935 0.06871631
0.031185903 -0.12685333 0.06659611 -0.1048609 -0.15443772 0.009220056 0.077322885 0.06627554
0.026541986 0.064965464 0.06411579 0.100787096 0.08077813 0.15445505 -0.03612335 0.14150634
0.21700498 0.11988082 -0.0047259373 0.05877394 -0.18152973 0.028250167 0.011469215 -0.067203216
0.13519059 -0.17144704 -0.0710979 0.07149531 -0.109980874 0.074018 -0.13675722 -0.083709076
-0.23219426 -0.07421857 0.025972612 -0.1740506 -0.10793033 -0.02759676 -0.17645219 -0.0051303934
0.25413287 0.3171078 -0.028078338 -0.051728636 0.03193273 0.067371346 0.11747852 -0.00638779
-0.09954935 0.11585592 -0.050166283 -0.019305449 0.005241233 0.09711992 0.049402434 -0.08930695

fc.bias f4 [10]
00000000: 1bcf 913d 8ecb f03d f450 55bd b6f5 36bd
00000010: 1a4b 06bd 91f5 5bbc 065f f4bc c564 a0bc
00000020: ba51 833b c695 10bd
0.0711958 0.11757575 -0.052079156 -0.044667922 -0.032786466 -0.013425247 -0.029830467 -0.0195793
0.0040075453 -0.035299085
