model.pth (torch, 439839 bytes, 6 tensors)

0.weight f4 [128, 784]
0	0xbc17b15f	-0.009258597
1	0x3ce2b7ce	0.027675536
2	0xbc5be1b5	-0.013420512
3	0xbca45774	-0.020061232
4	0xbcac1602	-0.021006588
5	0xbcc621e4	-0.024186082
6	0xbb5b9210	-0.0033503808
7	0xbcbb352e	-0.022852506
8	0x3b90d146	0.0044194786
9	0xbb0f4c24	-0.0021865452
10	0x3c6d66fb	0.0144898845
11	0xbd17b358	-0.03703627
12	0xbc6c17fe	-0.014410017
13	0x3affebd9	0.0019525244
14	0x3b74ef14	0.0037373947
15	0x3bf251d0	0.0073950067
16	0x3cb578b0	0.022152275
17	0x3bf735e8	0.007544268
18	0x3c6a05af	0.014283582
19	0xbc564413	-0.013077754
20	0x3c110b97	0.008852861
21	0xbc5083f7	-0.012726775
22	0xbcc031f8	-0.023461327
23	0x3c90f832	0.017696474
24	0xbd14b01e	-0.03630077
25	0xbd07557e	-0.033040516
26	0x3b51b0d6	0.0031996272
27	0xbc9589ec	-0.018254243
28	0xbd0bcda2	-0.034131654
29	0xbd291190	-0.041276515
30	0x3b601d0e	0.0034197005
31	0x3ce3b896	0.027797978
32	0xbd05dae8	-0.03267947
33	0x3bd187ca	0.006394361
34	0x3c94d18f	0.018166332
35	0xbbdb2f28	-0.006688971
36	0x3c059570	0.008153304
37	0xbb97ec44	-0.0046363194
38	0xbc2427a9	-0.010019221
39	0xbbb909e8	-0.005646933
40	0x3cfbbf4a	0.030730862
41	0x3cdda516	0.027056258
42	0x3bd088ee	0.0063639795
43	0xbbf22163	-0.007389234
44	0xbba0d271	-0.004907899
45	0x3aa38cda	0.001247789
46	0x3c8bbe27	0.017058445
47	0xbd19aad6	-0.037516437
48	0x3b952037	0.0045509594
49	0xbce44c8a	-0.027868528
50	0xbcb4cdf7	-0.022070868
51	0x3bd29f54	0.006427685
52	0x3c0ee3ef	0.008721336
53	0xbca4a512	-0.020098243
54	0x3c9b6c0a	0.018972415
55	0x3c8eeb78	0.017446265
56	0x3cd594fe	0.026072022
57	0xbd0598ec	-0.03261654
58	0x3c20a877	0.00980579
59	0x3ccc39d0	0.02492991
60	0x3b8f5299	0.00437386
61	0x3b22b0ea	0.0024824687
62	0x3b8e89a2	0.004349903
63	0xbd0034b4	-0.03130026
64	0x3bc7acab	0.0060935817
65	0xbce75b93	-0.028241908
66	0xbcfd20cc	-0.030899428
67	0x3d11c7a9	0.0355908
68	0x3c4330e0	0.011913508
69	0xbb5756bc	-0.0032858094
70	0x3a5e5c4b	0.00084823807
71	0x3c8d06c3	0.017215138
72	0x3c832c50	0.01601234
73	0xbcbab6b0	-0.02279219
74	0xbca8e8da	-0.020618845
75	0xbccc02ec	-0.024903737
76	0x3c1b6dde	0.009486644
77	0xbce0f204	-0.027459152
78	0xbcffc5e0	-0.031222284
79	0xbc8ca879	-0.017170178
80	0x3c4651d8	0.012104474
81	0xbc58d9eb	-0.013235549
82	0xbcdd4932	-0.027012441
83	0xbd0fd6d6	-0.035116993
84	0x3cbee9cc	0.023304842
85	0x3cd31402	0.025766376
86	0xbc825853	-0.015911257
87	0x3cd27ed2	0.025695238
88	0xbc22b7cd	-0.009931517
89	0xbd0088b4	-0.03138037
90	0x3c190b43	0.009341064
91	0x3b0a6c0e	0.0021121535
92	0xbbd27c67	-0.0064235213
93	0x3d48e6a8	0.049048096
94	0x3ceb4c79	0.028722988
95	0x3b0c4b60	0.0021407232
96	0x3a96be4b	0.0011500804
97	0x3d8740a1	0.06604124
98	0x3bbb54fc	0.005716918
99	0xbc228a46	-0.009920662
100	0x3c9ccad4	0.019139685
101	0xbc96641a	-0.018358279
102	0x3d194f62	0.03742922
103	0x3d1848ec	0.03717892
104	0x3d0736fa	0.033011414
105	0x3b92552f	0.004465721
106	0xbca107c8	-0.01965703
107	0x3bdd0897	0.0067454088
108	0x3c144a34	0.0090508945
109	0x3bdd95a2	0.0067622224
110	0xbb2c5380	-0.0026294887
111	0xbcd1389e	-0.025539692
112	0x3c25923d	0.010105667
113	0x3be29458	0.0069146566
114	0xbc168a87	-0.009188301
115	0x3ce21fd8	0.027603075
116	0xbcb7da8a	-0.022443075
117	0x3aa4bab8	0.0012567854
118	0xbc83e673	-0.016101098
119	0xbc9fcecf	-0.019507794
120	0x3b4fb992	0.0031696302
121	0x3d4ca707	0.049963977
122	0x3d8d503b	0.06900068
123	0x3d0d080c	0.034431502
124	0x3c2edb09	0.010672339
125	0x3c9f3a40	0.019436955
126	0x3ca1d3ac	0.019754253
127	0x3c70e2d6	0.014702519
128	0x3d763aaf	0.06011456
129	0x3cb9dfb2	0.022689674
130	0xbbd22b21	-0.006413833
131	0x3d5ecb5f	0.05439317
132	0x3ca2cbec	0.019872628
133	0xbd20f178	-0.039292783
134	0xbd124b82	-0.03571654
135	0xbd660c82	-0.056164272
136	0xbd3c4ebb	-0.04597352
137	0xbd090225	-0.03344931
138	0xbb140bda	-0.0022590072
139	0x398431ee	0.00025214202
140	0xbc307427	-0.01076988
141	0xbbd42316	-0.006473909
142	0xbbe92f5a	-0.0071162404
143	0x3cc5bc49	0.024137633
144	0x3ce0647c	0.027391665
145	0xbbae28aa	-0.005314906
146	0x3cdf2ef3	0.027244067
147	0xbbe1dea4	-0.006892996
148	0xbc612a8b	-0.013743053
149	0xbab5aa69	-0.001385999
150	0xbbff6c05	-0.0077948594
151	0xbc8c433a	-0.0171219
152	0xbb3e69e1	-0.0029054808
153	0xbbb549de	-0.0055324873
154	0x3cb10ca9	0.021612482
155	0xbd9804e8	-0.07422811
156	0x3c508ebb	0.012729342
157	0x3d0ec2ef	0.034853872
158	0x3bb16e2e	0.005414746
159	0x3d8350e8	0.06411916
160	0x3c45ed9f	0.012080579
161	0x3d68ef88	0.05686906
162	0xbc918a26	-0.01776607
163	0x3c512c4a	0.012766907
164	0xbd137e9f	-0.036009427
165	0x3a8cad16	0.0010732736
166	0xbb68a330	-0.0035497658
167	0xbd1963a1	-0.03744853
168	0xbc4c2ccd	-0.012461853
169	0xbd1952e6	-0.037432574
170	0x3b7b2b0b	0.0038325216
171	0xbcdb8e7e	-0.026801344
172	0xbcc4a94e	-0.024006512
173	0xbcbee432	-0.023302171
174	0xbc203d87	-0.009780294
175	0x3d29d556	0.04146322
176	0x3c3e6c7c	0.011622544
177	0xbd7cdc4f	-0.06173354
178	0x3cbd7188	0.023125425
179	0x3c95c816	0.018283885
180	0x3ca90449	0.020631926
181	0xbd12567f	-0.03572702
182	0xbd135104	-0.035965934
183	0x3b5ab24f	0.003337044
184	0xbc775448	-0.015095778
185	0xbd11ebfb	-0.03562544
186	0x3c084697	0.008317611
187	0x3ab849c5	0.0014060071
188	0xbb602ad0	-0.0034205206
189	0xbd1d0e14	-0.038343504
190	0xbcbbec70	-0.02293989
191	0xbd1abe5b	-0.037779193
192	0xba59ab47	-0.00083034154
193	0xb9c2ab34	-0.0003713012
194	0xbd19ab4e	-0.037516885
195	0xbba294b8	-0.0049615763
196	0xbc34c16b	-0.011032443
197	0x3cb86102	0.022507194
198	0xbc840f76	-0.016120654
199	0x3af05dc5	0.0018338492
200	0x3d2885e3	0.04114331
201	0x3c9e0530	0.019289583
202	0xbc078382	-0.0082711
203	0x3c9c46af	0.019076673
204	0x3bd1343a	0.0063843997
205	0xbcb7c3e9	-0.022432284
206	0xbca7822c	-0.020447813
207	0x3bfdb308	0.0077422895
208	0xbcf94b0c	-0.030431293
209	0xbd4fffef	-0.050781187
210	0xbca47c75	-0.020078877
211	0xbc85f1f4	-0.016350724
212	0xbcbcc6af	-0.023043958
213	0x3c382c61	0.0112410495
214	0x3d1878bc	0.037224516
215	0xbcc32767	-0.0238225
216	0xbcfde24c	-0.030991696
217	0xbc8396aa	-0.016063053
218	0x3d3c2525	0.04593386
219	0xbce79f4f	-0.028274206
220	0xbd35dae0	-0.04439819
221	0xbcbacd43	-0.022802955
222	0xbb6c8991	-0.0036092738
223	0xbccd9eeb	-0.025100192
224	0xbc72de6b	-0.014823536
225	0x3cb82f1c	0.022483401
226	0xbd4252d5	-0.047442276
227	0xbce93a19	-0.028470086
228	0x3d111d84	0.03542854
229	0x3cc58718	0.02411227
230	0x3c985516	0.01859526
231	0x3c8c9638	0.017161474
232	0xbcbc0849	-0.02295317
233	0xbc12fcf3	-0.008971441
234	0xbd1e7979	-0.038690064
235	0x3c9debb8	0.019277439
236	0xbc628f76	-0.013828149
237	0x3da0faeb	0.07860359
238	0xbc67eed0	-0.014156058
239	0xbcef5a83	-0.029217964
240	0x3d295ac5	0.04134633
241	0xbc3aa163	-0.011391017
242	0xbcef2e16	-0.02919678
243	0x3c9fa8a1	0.019489588
244	0xbd15c274	-0.036562398
245	0xbd575bf8	-0.052577943
246	0x3ca4bc48	0.02010931
247	0xbd1e03ba	-0.038577773
248	0xbd382701	-0.044959072
249	0x3cc82d2e	0.024435606
250	0xbd0c91e4	-0.03431882
251	0xbd04d38b	-0.032428306
252	0xbc6dee57	-0.014522157
253	0x3c522e08	0.0128283575
254	0xbd2dfcfc	-0.042477593
255	0xbb66af4a	-0.0035199695

0.bias f4 [128]
0	0x3ca5b713	0.020228898
1	0xbc4fbdc3	-0.01267952
2	0x3c9222a4	0.017838784
3	0xbcb194e0	-0.021677434
4	0xbc19cfec	-0.009387951
5	0x3d115b78	0.035487622
6	0xba6d600e	-0.0009055146
7	0xbb1daed5	-0.0024060507
8	0x3b8341c3	0.004005642
9	0x3b8074bc	0.003920166
10	0x3cb60038	0.022216901
11	0x3ce2e2e8	0.027696088
12	0xba65d2a5	-0.0008767045
13	0x3cae413f	0.021271346
14	0x3d0abdec	0.03387253
15	0xbcb11b77	-0.021619542
16	0xbc2ea5a6	-0.010659611
17	0xbc3211b7	-0.010868481
18	0xbcd2d8b0	-0.02573809
19	0xbc1a660e	-0.009423746
20	0x3b983800	0.0046453476
21	0x3d0e6b26	0.034770153
22	0x3ccfcb1e	0.025365409
23	0xbb98e492	-0.0046659196
24	0x3d0bcefa	0.034132935
25	0xbd1e9745	-0.03871848
26	0xbca137ab	-0.019679865
27	0x3c82f1b7	0.0159844
28	0x3cf1ec5f	0.029531656
29	0xbbd7a207	-0.0065805945
30	0x3c7cacae	0.015422029
31	0x3c14b90c	0.009077322
32	0xbce0c831	-0.027439209
33	0xbd0e4294	-0.034731463
34	0xba1fc0f9	-0.0006094124
35	0x3d353ad4	0.044245556
36	0xbcf23a9d	-0.029568965
37	0x3c2330dc	0.009960379
38	0x3d01703b	0.031601172
39	0xbbfdf8d2	-0.007750609
40	0xbc84e11c	-0.016220622
41	0xbcaadcbd	-0.02085721
42	0xbd24581d	-0.040123094
43	0x3cc9bde0	0.024626672
44	0xbd1ffa6d	-0.039057184
45	0x3c409001	0.011753083
46	0xbd28caf3	-0.041209172
47	0xbd0a964c	-0.03383474
48	0x3cf043d2	0.029329214
49	0xbb9b3540	-0.0047365725
50	0xbcd5c408	-0.026094452
51	0xbb100cb2	-0.0021980223
52	0xbba6f8db	-0.005095584
53	0x3d06b7da	0.03289018
54	0xbb992da7	-0.0046746316
55	0x396ae0d0	0.00022399728
56	0x3c033158	0.00800737
57	0xbd17b8ea	-0.037041582
58	0x3c529c93	0.012854713
59	0xbcf3a8fc	-0.029743664
60	0x3cd4e853	0.025989687
61	0xbcf1a2be	-0.029496547
62	0xbbcfb2b4	-0.0063384417
63	0xbc577999	-0.01315155
64	0x3bf9bf52	0.007621684
65	0xbd162551	-0.03665668
66	0xbd19f698	-0.037588686
67	0x3c0bd040	0.008533537
68	0x3c822827	0.015888287
69	0x3b108cd8	0.0022056606
70	0xbd072881	-0.032997612
71	0x3d114287	0.035463836
72	0x3c82fd1d	0.015989834
73	0x3b63d4e9	0.0034764356
74	0x3c004314	0.007828493
75	0x3cabdc57	0.02097909
76	0x3b3432f2	0.0027496186
77	0xbb80f04c	-0.0039348956
78	0x3ad98dab	0.0016598006
79	0xbcaad389	-0.020852821
80	0xbbeddf1f	-0.007259264
81	0x3cc855c6	0.024454962
82	0xbc841d08	-0.016127124
83	0xbce2ab68	-0.027669623
84	0x3d235956	0.03988012
85	0xbc04b77e	-0.008100389
86	0x3cca6990	0.02470854
87	0xbaee9b33	-0.0018204212
88	0xbc4188bd	-0.011812386
89	0x3ce2a660	0.027667224
90	0xbc73aced	-0.014872772
91	0x3c968665	0.018374631
92	0xbcd5bc7c	-0.026090853
93	0x3ce9d55e	0.028544124
94	0x3be118d3	0.0068694144
95	0x3cf23902	0.029568199
96	0x3c7b6b5e	0.015345423
97	0x3d0067f4	0.031349137
98	0xbd4918f8	-0.049096078
99	0x3cb037ff	0.021511076
100	0x3ce77749	0.028255122
101	0xbc7a14f9	-0.015263789
102	0xbd137613	-0.036001276
103	0x3ca4ff8b	0.020141384
104	0x3c89b921	0.01681191
105	0x3cfc0e9a	0.030768681
106	0x3cd55cac	0.026045166
107	0xbbea0069	-0.007141162
108	0xbd052c2d	-0.032512832
109	0xbb6b7940	-0.0035930425
110	0xbd11f43b	-0.035633307
111	0x3b81f08e	0.003965444
112	0xbc0e51e4	-0.008686516
113	0xbce2ff03	-0.02770949
114	0xbd18e09a	-0.03732357
115	0xbce57cc6	-0.028013598
116	0xbc3c6de1	-0.011500807
117	0x3bebb126	0.0071927486
118	0x3c43ebe2	0.011958094
119	0x3d14c365	0.036319155
120	0xbc46f2c0	-0.012142837
121	0xbd01767b	-0.031607132
122	0x3bef988b	0.0073118857
123	0xbd052057	-0.032501545
124	0x3c82abbe	0.015951034
125	0xbcbfa50c	-0.02339413
126	0x3bf7c625	0.0075614625
127	0x3a01a6a8	0.0004945793

2.weight f4 [64, 128]
0	0x3de3cc83	0.11122992
1	0x3deecf2c	0.11660609
2	0xbcdf4f07	-0.027259363
3	0xbde4c4e0	-0.111703634
4	0x3de97a58	0.11400288
5	0x3d482961	0.048867587
6	0xbd81e7df	-0.06343054
7	0x3d969c62	0.073540464
8	0xbdae92d7	-0.08524101
9	0xbe4d0d0d	-0.2002451
10	0xbbdf33b9	-0.0068115857
11	0x3e178d1a	0.1479992
12	0x3d01f62b	0.031728905
13	0x3e090347	0.13380156
14	0x3e538f6f	0.20660184
15	0x3d923b51	0.0714022
16	0xbd4a4034	-0.049377635
17	0x3c19e57e	0.009393094
18	0x3af6625d	0.0018797625
19	0xbcf4344e	-0.029810097
20	0x3d1aec21	0.037822846
21	0xbd09cbd2	-0.033641644
22	0xbd72642e	-0.05917757
23	0xbd5d8cef	-0.054089483
24	0xbcd293f9	-0.025705324
25	0xbe0c84aa	-0.13722482
26	0xbdbd5bef	-0.092460506
27	0x3da3eba6	0.08003931
28	0xbd87dcd5	-0.06633917
29	0xbe82e7f5	-0.25567594
30	0x3e875f4b	0.2643989
31	0xbcb00d13	-0.02149061
32	0x3d9efbd2	0.07762875
33	0x3cecc372	0.02890179
34	0xbd3838f8	-0.044976205
35	0xbdec2d60	-0.11532092
36	0x3d74493d	0.059640158
37	0xbc3bb113	-0.011455792
38	0x3b9964d9	0.0046812114
39	0xbd32ac31	-0.043621246
40	0x3e82d83e	0.25555605
41	0xbdc72593	-0.097239636
42	0xbd6b9328	-0.057513386
43	0x3de14650	0.10999739
44	0xbe2f1b49	-0.17100252
45	0xbdeb7873	-0.11497583
46	0x3cea71ef	0.02861878
47	0x3d18c93b	0.037301283
48	0x3ebefa6a	0.37300426
49	0x3d9e1245	0.077183284
50	0x3e00b01b	0.12567179
51	0xbd5d4959	-0.054025028
52	0x3b38f349	0.002822118
53	0xbd60dfbe	-0.054900877
54	0xba4cfef1	-0.00078199717
55	0xbd4a989e	-0.049461953
56	0x3d9495e7	0.07255154
57	0xbd1ca5e7	-0.038244154
58	0xbdd06619	-0.101757236
59	0xbdb43ba2	-0.088004366
60	0x3e817a11	0.25288442
61	0xbd7703cf	-0.060306367
62	0x3d557e8f	0.05212265
63	0x3d28c581	0.04120398
64	0xbeb6931c	-0.3565911
65	0x3cfe36a0	0.031031907
66	0xbdf36109	-0.11883742
67	0x3e477436	0.19477925
68	0xbd2246dd	-0.03961836
69	0x3da206f0	0.079114795
70	0xbd442945	-0.04789092
71	0x3d8fc398	0.070197284
72	0x3e776aac	0.24161786
73	0x3b7d1e4d	0.0038622797
74	0xbda80b0c	-0.08205232
75	0x3e10c74a	0.14138523
76	0x3d383fde	0.044982783
77	0xbd9c9240	-0.076450825
78	0x3d24cdf7	0.040235486
79	0xbd4020ae	-0.046906166
80	0x3d73942b	0.059467476
81	0xbd87662c	-0.066112846
82	0xbe632509	-0.22182097
83	0xbd5f0fc8	-0.05445841
84	0x3d8c2d2f	0.068445556
85	0x3c881d1f	0.016615449
86	0x3d6553c9	0.055988107
87	0xbc440ba2	-0.011965664
88	0x3dd4ba95	0.1038715
89	0x3d69bbdc	0.057063922
90	0x3e5b3cf8	0.21409976
91	0xbdf2e39d	-0.1185982
92	0x3bcf8b2e	0.00633373
93	0x3cb2967a	0.021800268
94	0xbe86feec	-0.26366365
95	0xbc5ad0d0	-0.013355449
96	0x3dda6f3c	0.106657475
97	0x3c4fba37	0.012678674
98	0x3d543dbf	0.0518167
99	0xbd67906a	-0.05653421
100	0xbc67d9e2	-0.014151068
101	0x3cc01b90	0.023450643
102	0xbd2a6cca	-0.041607656
103	0xbd3d25d0	-0.04617864
104	0xbd2b827b	-0.041872483
105	0xbe941bf4	-0.28927577
106	0x3d8126de	0.063062415
107	0x3cb7168c	0.022349618
108	0xbe6bcc89	-0.23027243
109	0x3cb9d820	0.022686064
110	0xbd9ed84c	-0.07756099
111	0x3e90afe9	0.2825921
112	0xbe01860a	-0.12648788
113	0xbe17c1b4	-0.14819986
114	0x3c8e4b24	0.017369814
115	0x3e00c2f7	0.12574373
116	0x3e12ce96	0.14336619
117	0xbd471d6d	-0.048612047
118	0x3d8ff882	0.07029821
119	0xbd85c3d7	-0.06531494
120	0x3e1a22b6	0.15052304
121	0xbd9994ee	-0.07499109
122	0xbc91ade6	-0.017783117
123	0xbd157642	-0.036489733
124	0x3d376564	0.044774428
125	0x3c597722	0.013273032
126	0x3e529b28	0.20567
127	0x3d90e15a	0.070742324
128	0x3e060303	0.13087086
129	0x3e840bb4	0.2579018
130	0x3b055799	0.0020346402
131	0x3eb3e8ac	0.35138452
132	0x3ce9db57	0.028546972
133	0xbdb62faa	-0.0889581
134	0x3d204b3d	0.039134253
135	0xbd71e2c4	-0.05905415
136	0xbd5c10bf	-0.053726908
137	0x3d15aca4	0.036541596
138	0x3da0b563	0.07847097
139	0x3cc3dc3c	0.023908727
140	0x3e388fbf	0.18023585
141	0x3dababbd	0.08382366
142	0xbdaa1dc1	-0.08306456
143	0xbd89ba80	-0.06725025
144	0xbe2bc7da	-0.16775456
145	0xbe0cc13c	-0.13745588
146	0x3dae76e0	0.08518767
147	0xbd9cc2b4	-0.07654324
148	0x3cfd76cf	0.030940441
149	0xbe04c8f4	-0.12967283
150	0xbddf80e2	-0.10913254
151	0xbd73b867	-0.05950203
152	0xbc9f433f	-0.019441245
153	0xbd422ae3	-0.04740418
154	0xbe50709f	-0.20355462
155	0xbd71c1d4	-0.05902274
156	0x3d4f1e51	0.05056602
157	0x3e0e8446	0.13917646
158	0xbe06761f	-0.13130997
159	0x3dfa89a2	0.122332826
160	0xbcc9cc68	-0.024633601
161	0x3d523143	0.05131651
162	0x3bcc8077	0.0062409
163	0x3e141d9e	0.14464423
164	0x3e04b0b7	0.12958036
165	0xbc5ecaa1	-0.013598115
166	0xbe33d7cc	-0.17562789
167	0x3e0c0a62	0.13675836
168	0xbb3059d8	-0.002690902
169	0x3cdd73ac	0.027032696
170	0xbe220592	-0.15822437
171	0xbce82378	-0.028337225
172	0x3e7ec98e	0.24881575
173	0x3c9241e9	0.017853694
174	0xbd64b5dc	-0.055837497
175	0xbdd53fe2	-0.10412575
176	0x3cfde5d9	0.030993389
177	0xbd9e532e	-0.07730709
178	0x3d90fca9	0.07079441
179	0xbc82c318	-0.015962169
180	0x3d7a0235	0.06103726
181	0x3dcb6acb	0.099324785
182	0xbcb9bf7b	-0.022674313
183	0xbae20306	-0.0017243333
184	0x3da2a90f	0.079424016
185	0x3dd3e956	0.1034724
186	0xbe28ad5b	-0.1647238
187	0x3ceba8b5	0.02876697
188	0xbd7e8af9	-0.062144253
189	0xbdad3c9a	-0.084588245
190	0x3dadd661	0.08488155
191	0xbdf4454e	-0.11927281
192	0x3d7ef834	0.062248424
193	0x3e81e53c	0.25370204
194	0xbd8de0e7	-0.06927662
195	0x3e20ee62	0.15715936
196	0xbc0a0721	-0.008424551
197	0x3bca2a8e	0.0061696237
198	0xbb6495f8	-0.0034879427
199	0xbd46c843	-0.04853083
200	0x3e153c51	0.1457379
201	0x3d3ca8df	0.046059486
202	0xbdb1a764	-0.08674505
203	0x3ce96caa	0.028494198
204	0x3e871cb5	0.2638909
205	0x3dbb4b5d	0.09145234
206	0x3cb8f25d	0.022576505
207	0xbe4cc667	-0.1999756
208	0xbe31e0ea	-0.17370954
209	0xbe04f808	-0.12985241
210	0x3d865aab	0.06560262
211	0xbd875f4b	-0.066099726
212	0x3d006d0c	0.031353995
213	0xbd9d817f	-0.07690715
214	0x3d305597	0.043050375
215	0x3e62a181	0.22131921
216	0xbc2d6c0d	-0.010584843
217	0xbb1ec458	-0.0024225917
218	0x3e1296a6	0.1431528
219	0x3d8144f8	0.06311983
220	0xbc9a9e68	-0.018874362
221	0xbcb546d9	-0.02212851
222	0xbde03614	-0.109478146
223	0xbda7fc36	-0.08202402
224	0xbe35af39	-0.17742623
225	0xbd3683f8	-0.04455945
226	0x3e4dd187	0.2009946
227	0xbe0f5560	-0.13997412
228	0x3e557ea6	0.20849094
229	0xbcaaf2a7	-0.020867659
230	0x3c8b7900	0.01702547
231	0xbd51bdf8	-0.05120656
232	0xbc3f5dfc	-0.011680122
233	0x3e0e1e9c	0.13878864
234	0x3d3c8888	0.046028644
235	0x3c608a81	0.013704897
236	0xbc1761f5	-0.009239663
237	0xbe1db38b	-0.15400521
238	0x3e0067ba	0.12539569
239	0x3dab5e89	0.083676405
240	0x3df82268	0.121159375
241	0x3dab265a	0.08356924
242	0x3d89d074	0.067292124
243	0x3e0bdfc1	0.13659574
244	0xbc95bc34	-0.018278219
245	0xbd98349a	-0.07431908
246	0x3d9aa3d2	0.075507775
247	0xbe2f59cc	-0.17124099
248	0xbe2223fc	-0.1583404
249	0x3d933a14	0.07188812
250	0x3d0bea17	0.034158792
251	0xbd06c021	-0.032898072
252	0x3d70fbf7	0.058834042
253	0x3e133726	0.14376506
254	0x3e50fb1e	0.20408294
255	0x3db072a1	0.08615614

2.bias f4 [64]
0	0x3d4597ed	0.04824059
1	0x3c831d3f	0.016005157
2	0x3d532c73	0.051556062
3	0xbd27ffc3	-0.041015398
4	0x3ca9e12b	0.020737251
5	0xbc8d98db	-0.017284801
6	0xbd090aa7	-0.033457424
7	0xbd6e6e84	-0.058210865
8	0xbdbcd684	-0.09220603
9	0xbd5c3d56	-0.053769432
10	0xbd122630	-0.03568095
11	0xbd89f19d	-0.06735537
12	0xbc633088	-0.013866551
13	0x3cc95cc4	0.024580367
14	0x3d546957	0.051858272
15	0x3d05ae1f	0.032636758
16	0x3e45875b	0.19289915
17	0xbd237ea5	-0.0399157
18	0x3dcba3d9	0.09943361
19	0x3d4fc764	0.050727263
20	0x3dc9087c	0.098160714
21	0xbbb076a6	-0.0053852377
22	0x3bf75a05	0.007548573
23	0x3c7d8797	0.015474222
24	0xbda5ae80	-0.08089924
25	0xbccf3c75	-0.025297383
26	0xbd996d69	-0.074915715
27	0x3d4afb64	0.04955615
28	0xbd8e10b8	-0.069367826
29	0x3d2b4aa9	0.04181925
30	0x3cc3305a	0.023826767
31	0x3d9b0650	0.075695634
32	0xbd3f85cc	-0.046758458
33	0x3d534179	0.05157611
34	0x3d5fb881	0.054619316
35	0x3ded5816	0.11589067
36	0x3d1aabb9	0.037761424
37	0x3d970ef8	0.07375902
38	0xbdfbcf84	-0.1229544
39	0x3d8370ef	0.06418025
40	0x3d82c48e	0.06385146
41	0x3e025870	0.12729049
42	0x3db632c6	0.08896403
43	0x3d0dda6f	0.034632143
44	0x3cb0bdec	0.021574937
45	0xbd3a84b9	-0.04553673
46	0xbdbb0254	-0.091313034
47	0x3d4fa402	0.05069352
48	0xbd13ac28	-0.036052853
49	0xbc0dc297	-0.008652351
50	0x3de01586	0.10941605
51	0x3d439fef	0.047759946
52	0x3c6396ca	0.013890931
53	0xbd4aa3bc	-0.049472556
54	0x3d379404	0.044818893
55	0x3da036db	0.07822963
56	0xbcb6abb8	-0.022298679
57	0xbcab9ff9	-0.020950304
58	0xbd385cbc	-0.045010313
59	0xbc382bbe	-0.011240898
60	0x3d38f6b0	0.045157135
61	0xbb1bc6cb	-0.0023769613
62	0xbd0e1298	-0.0346857
63	0xbcea88d0	-0.02862969

4.weight f4 [10, 64]
0	0xbe08fced	-0.13377734
1	0xbe4568ac	-0.1927821
2	0x3de5081b	0.111831866
3	0xbf03eb7d	-0.515312
4	0x3e594a2d	0.21219702
5	0x3d0ce8c0	0.034401655
6	0xbf257316	-0.6462873
7	0xbd1e726d	-0.038683344
8	0x3ef00c9e	0.46884626
9	0x3d6b08b8	0.05738136
10	0xbe86c27b	-0.26320252
11	0x3cb33aff	0.021878717
12	0x3e908a03	0.28230295
13	0xbcd4a77d	-0.02595877
14	0x3d94d45b	0.07267066
15	0xbdc81413	-0.09769454
16	0xbe42c089	-0.19018759
17	0x3e2cc487	0.16871844
18	0xbe3fce01	-0.18730928
19	0x3e06f97c	0.13181108
20	0xbe94eb65	-0.29085842
21	0xbd95510c	-0.07290849
22	0xbeff3eae	-0.49852508
23	0x3d03a059	0.03213534
24	0x3c0cdff3	0.0085983155
25	0xbcc5b09a	-0.024132062
26	0xbeabfc0a	-0.33590728
27	0xbd13cb72	-0.036082692
28	0x3d77c730	0.060492694
29	0xbe2ccef8	-0.16875827
30	0xbd2bc07b	-0.04193161
31	0x3de33a5a	0.11095114
32	0xbebbae4a	-0.3665641
33	0xbd6d450a	-0.05792717
34	0x3cf33201	0.02968693
35	0xbd9abda6	-0.07555704
36	0xbe7967d4	-0.24356014
37	0xbeff4d48	-0.49863648
38	0x3dbd23ae	0.09235321
39	0xbf06a508	-0.5259557
40	0xbd877ecc	-0.066159815
41	0xbdaf4ecd	-0.08559952
42	0x3ee436c5	0.44573036
43	0xbe79af16	-0.24383196
44	0x3e862189	0.2619746
45	0x3d032da1	0.032025937
46	0x3becf384	0.0072311778
47	0x3eebec63	0.46078786
48	0x3ecb2fb6	0.39684838
49	0xbd0c3739	-0.034232352
50	0xbedadae7	-0.42745134
51	0xbe8ef14d	-0.27918473
52	0x3e5a4d90	0.2131865
53	0xbea10cad	-0.31454983
54	0x3d8cc85a	0.068741515
55	0xbee58149	-0.448252
56	0xbe2d16d8	-0.16903245
57	0x3db00acb	0.085958086
58	0xbeb19be7	-0.34689257
59	0x3f27ec8b	0.6559531
60	0x3bd76596	0.0065733893
61	0x3f3e0e6a	0.74240744
62	0x3ee2ddcd	0.44309846
63	0x3eb3742a	0.35049564
64	0xbe3d9d7c	-0.18517107
65	0x3e89a7e2	0.26885897
66	0x3c4febb7	0.012690476
67	0x3eb041ca	0.34425193
68	0xbe19d500	-0.1502266
69	0x3e8adf9a	0.2712372
70	0xbc959b33	-0.018262481
71	0x3d9d3193	0.07675471
72	0x3d7da440	0.06192422
73	0xbdcb3606	-0.099224135
74	0xbebdd36d	-0.37075368
75	0xbe22d471	-0.15901352
76	0xbed368fc	-0.41291034
77	0x3f39f327	0.72636646
78	0xbdf42c91	-0.11922563
79	0x3cc26843	0.023731356
80	0xbf13e784	-0.5777514
81	0x3daa405c	0.08313057
82	0xbe000e73	-0.12505512
83	0xbc2d6e10	-0.010585323
84	0xbe3fdec0	-0.18737316
85	0xbd87605b	-0.06610175
86	0x3ec66488	0.38748574
87	0x3edcb132	0.4310394
88	0x3d12f021	0.035873536
89	0x3e1079fa	0.1410903
90	0xbe9c498c	-0.30524862
91	0xbe4144fe	-0.18873975
92	0x3e97d276	0.29652756
93	0xbe909c24	-0.28244126
94	0xbe8da7e1	-0.27667144
95	0xbe8e1847	-0.27752897
96	0x3e22e1cf	0.15906452
97	0xbe068bd9	-0.13139285
98	0x3d003df4	0.031309083
99	0xbd37b40c	-0.04484944
100	0x3eac1281	0.33607867
101	0x3e982226	0.29713553
102	0x3ec09763	0.376155
103	0xbd099cf1	-0.033596937
104	0x3d288ab3	0.0411479
105	0xbf06dd44	-0.52681375
106	0xbeca4eef	-0.39513347
107	0xbf0ab912	-0.54188645
108	0x3daec5e7	0.085338406
109	0xbcbb354b	-0.02285256
110	0xbdb9a5f5	-0.09064857
111	0xbf13c13c	-0.5771673
112	0x3eedc5ba	0.46439916
113	0x3d411270	0.047136724
114	0x3dead16a	0.11465724
115	0xbe03b360	-0.12861395
116	0xbd6a7fac	-0.057250664
117	0x3ec00d30	0.3751006
118	0x3dabcd8c	0.08388814
119	0x3ecf6dea	0.40513545
120	0x3cdaf1db	0.026726654
121	0xbe6f3c28	-0.23362792
122	0x3f3ec071	0.7451239
123	0x3c36e419	0.011162781
124	0xbdcff78f	-0.1015464
125	0xbe9667c2	-0.29376036
126	0x3dcfd2e8	0.10147649
127	0xbe0f0436	-0.1396645
128	0xbe06ec4f	-0.13176082
129	0x3e32b07e	0.17450139
130	0x3dd287c6	0.10279803
131	0xbe63cb1b	-0.22245447
132	0x3f5d4eb5	0.8644822
133	0xbec4cf88	-0.38439584
134	0x3d11da84	0.035608783
135	0xbe1d9f52	-0.15392807
136	0x3e134bed	0.14384432
137	0xbd81a0b9	-0.063294835
138	0x3e91f2b5	0.28505483
139	0x3dc38fe7	0.095489316
140	0xbe84a633	-0.2590805
141	0x3ee72350	0.4514413
142	0x3e5ec832	0.21756056
143	0xbd65ace0	-0.05607307
144	0xbc1ef645	-0.00970227
145	0x3b6a418c	0.0035744635
146	0xbe83218c	-0.25611532
147	0xbf13c050	-0.5771532
148	0xbe50fab1	-0.20408131
149	0xbe39d308	-0.18146908
150	0xbec2a837	-0.38018963
151	0xbdd75fb6	-0.10516302
152	0x3e5b4b54	0.21415454
153	0x3dfea494	0.124337345
154	0x3df42e9b	0.11922952
155	0x3f4d3b15	0.8016828
156	0x3e04b87c	0.12961
157	0xbd9c4729	-0.0763076
158	0xbeb38314	-0.35060942
159	0xbecf5ed7	-0.40502045
160	0xbea41b5d	-0.32052127
161	0xbd3e1c6f	-0.046413835
162	0x3e953d0b	0.29148135
163	0xbed7528c	-0.42055166
164	0xbeb31c9b	-0.34982762
165	0xbec51d93	-0.38499126
166	0xbecd13d0	-0.40054178
167	0xbe4b0924	-0.19827706
168	0x3dc518cc	0.0962387
169	0x3f1f7736	0.62291276
170	0x3e5e653f	0.2171831
171	0x3f2685f6	0.6504816
172	0x3f678a91	0.9044581
173	0xbcf8156d	-0.030283654
174	0x3e010896	0.12600932
175	0xbdab2944	-0.0835748
176	0x3e6a46a6	0.22878513
177	0xbbb86d93	-0.0056282966
178	0xbe3439f4	-0.17600232
179	0x3ed31abb	0.4123133
180	0xbd4a25b1	-0.04935235
181	0xbf163ef0	-0.58689785
182	0xbe0b531a	-0.1360592
183	0x3d105dcb	0.035245698
184	0x3e7cc5e9	0.24684872
185	0x3eacba60	0.33735943
186	0x3ee63daf	0.44968936
187	0xbd08f317	-0.033434954
188	0x3de9f757	0.114241295
189	0xbe528d22	-0.2056165
190	0xbe898cf9	-0.26865366
191	0x3d25639b	0.040378194
192	0xbf09a4c4	-0.5376704
193	0xbe5a2adf	-0.21305417
194	0x3e9bd128	0.3043301
195	0xbeace604	-0.33769238
196	0x3eb9ff68	0.36327672
197	0xbef24d6f	-0.47324702
198	0xbe74f5a5	-0.23921831
199	0x3d89fc55	0.06737582
200	0x3e8902a3	0.26759824
201	0x3def7dc6	0.11693911
202	0x3e5d9bfd	0.21641536
203	0x3e951730	0.29119253
204	0xbde154ee	-0.11002527
205	0xbf687b58	-0.9081321
206	0x3c541c24	0.012946162
207	0x3bfe9c5a	0.0077701034
208	0x3edc9ee8	0.43089986
209	0xbe67dede	-0.22643611
210	0xbed42035	-0.41430822
211	0x3e1a1db9	0.15050401
212	0x3d4eb600	0.050466537
213	0x3e06a7d3	0.13149957
214	0x3ebc2eed	0.36754552
215	0x3f325f6b	0.69676846
216	0x3e0004fd	0.12501903
217	0x3d82e744	0.06391767
218	0x3e467485	0.19380386
219	0x3e591c88	0.2120229
220	0xbe13600c	-0.14392108
221	0x3e46b652	0.19405487
222	0x3efb3280	0.49061966
223	0xbee0990b	-0.43866763
224	0x3f3df88b	0.7420737
225	0x3d02b6e3	0.031912696
226	0xbe6d8528	-0.23195326
227	0x3e0fcb2a	0.14042345
228	0x3f0a433a	0.5400883
229	0x3ed0a12e	0.4074797
230	0x3e94532a	0.289697
231	0x3e82ab37	0.25521252
232	0x3d39884b	0.045295995
233	0xbdaef187	-0.085421614
234	0xbf7f155b	-0.9964196
235	0x3ec57de9	0.38572624
236	0xbda1b02e	-0.07894932
237	0xbdbb94e7	-0.0915926
238	0x3d955ca8	0.072930634
239	0xbe909261	-0.28236678
240	0xbefa7ace	-0.48921818
241	0xbc647ab2	-0.0139452685
242	0xbf10da02	-0.56582654
243	0x3ea3e131	0.32007745
244	0xbe92b448	-0.2865317
245	0xbea5703a	-0.32312185
246	0x3da53ec7	0.080686145
247	0xbe6551d2	-0.22394493
248	0xbdbb19cf	-0.09135782
249	0x3e736b53	0.2377141
250	0x3e31fde1	0.17382003
251	0x3e263a9e	0.16233298
252	0x3d455395	0.048175413
253	0xbefdc809	-0.49566677
254	0x3de62c05	0.11238865
255	0x3db8ea5c	0.090290755

4.bias f4 [10]
0	0xbda9a596	-0.08283536
1	0x3dac2797	0.08405989
2	0xbddf8022	-0.10913111
3	0xbd90d4d2	-0.07071842
4	0x3e290b62	0.16508248
5	0xbe11ba6f	-0.14231275
6	0xbdf4ff71	-0.11962784
7	0x3d0b9281	0.034075264
8	0x3dcd95dd	0.1003835
9	0x3dcc4a63	0.09975126
